…
 "str": "MlpPolicyNet(  (embedding_ch0): Embedding(11, 6)  (embedding_ch2): Embedding(3, 1)  (conv): Conv2d(13, 100, kernel_size=(1, 1), stride=(1, 1))  (affine1): Linear(in_features=4900, out_features=100, bias=True)  (affine2): Linear(in_features=100, out_features=3, bias=True))",
 "reward_type": "net",
 "size": 4,
 "max_episodes": 10001,
 "optimizer": "Adam (\nParameter Group 0\n    amsgrad: False\n    betas: (0.9, 0.999)\n    capturable: False\n    differentiable: False\n    eps: 1e-08\n    foreach: None\n    fused: False\n    lr: 0.001\n    maximize: False\n    weight_decay: 0\n)",
 "summary": "-----------------------------------------------------------------------\n             Layer (type)                Input Shape         Param #\n=======================================================================\n              Embedding-1                 [-1, 7, 7]              66\n              Embedding-2                 [-1, 7, 7]               3\n                 Conv2d-3             [-1, 13, 7, 7]           1,400\n                 Linear-4                 [-1, 4900]         490,100\n                 Linear-5                  [-1, 100]             303\n=======================================================================\nTotal params: 491,872\nTrainable params: 491,872\nNon-trainable params: 0\n-----------------------------------------------------------------------\n-----------------------------------------------------------------------\n             Layer (type)               Output Shape         Param #\n=======================================================================\n              Embedding-1              [-1, 7, 7, 6]              66\n              Embedding-2              [-1, 7, 7, 1]               3\n                 Conv2d-3            [-1, 100, 7, 7]           1,400\n                 Linear-4                  [-1, 100]         490,100\n                 Linear-5                    [-1, 3]             303\n=======================================================================\nTotal params: 491,872\nTrainable params: 491,872\nNon-trainable params: 0\n-----------------------------------------------------------------------\n",
 "scheduler": "ReduceLROnPlateau",
 "scheduler_kwargs": {
  "factor": 0.2,
  "patience": 10,
  "min_lr": 5e-05
 },
 "reward_net_key": "emb_onehot_conv1x1_mlp_reward^2022-11-11_18:52:16",
…
