…
 "optimizer": "Adam (\nParameter Group 0\n    amsgrad: False\n    betas: (0.9, 0.999)\n    capturable: False\n    differentiable: False\n    eps: 1e-08\n    foreach: None\n    fused: False\n    lr: 0.0001\n    maximize: False\n    weight_decay: 0\n)",
 "penalty_rewards": 0,
 "batch_size": 16,
 "num_subtrajectories": 7,
 "subtrajectory_length": 3,
 "use_also_complete_trajectories": true,
 "summary": "-----------------------------------------------------------------------\n             Layer (type)                Input Shape         Param #\n=======================================================================\n              Embedding-1                 [-1, 7, 7]              66\n              Embedding-2                 [-1, 7, 7]               3\n                 Conv2d-3             [-1, 13, 7, 7]           1,400\n                 Linear-4                 [-1, 4900]         490,100\n                 Linear-5                  [-1, 101]             102\n=======================================================================\nTotal params: 491,671\nTrainable params: 491,671\nNon-trainable params: 0\n-----------------------------------------------------------------------\n-----------------------------------------------------------------------\n             Layer (type)               Output Shape         Param #\n=======================================================================\n              Embedding-1              [-1, 7, 7, 6]              66\n              Embedding-2              [-1, 7, 7, 1]               3\n                 Conv2d-3            [-1, 100, 7, 7]           1,400\n                 Linear-4                  [-1, 100]         490,100\n                 Linear-5                    [-1, 1]             102\n=======================================================================\nTotal params: 491,671\nTrainable params: 491,671\nNon-trainable params: 0\n-----------------------------------------------------------------------\n",
 "max_epochs": 0,
 "games": [
  "2022-11-11_18:49:53",
  "2022-11-11_18:49:45",
  "2022-11-11_18:50:18"
 ]
}